discriminator_x.pth (torch, 548376 bytes, 5 tensors)

main.0.weight f4 [64, 3, 4, 4]
00000000: c077 3b3d 8892 c43c 228d 7c3d 2c55 9d3d
00000010: e0c1 da3d 9851 0b3e f475 b6bd 034a 8dbd
00000020: 3f9f b73d c633 413d 0e48 3fbd 837c 18bd
00000030: e105 dc3a 0bbe aabd be12 563d a2f5 c4bd
00000040: 473f 6e3d a887 c33d 93b9 4dbd 2a25 8c3d
00000050: 206f 363e abe6 eb3d 1035 b93d 4f1c f9bd
00000060: 6bef ed3d 9bea 68bc 3454 53bd 1a2d 213d
00000070: d1c7 dbbd 8c21 16be 64eb 73bd 6a9e d9bd
00000080: cfc6 703d 25cf 97bc 65d9 c93d 7811 223d
00000090: 58bc 3f3d 3846 cc3d d5f2 92bc 9649 78bd
000000a0: 39d7 923c c9d6 c4bd a1aa 9fbd 0d37 bebd
000000b0: a845 e6bc 1621 e5bd ab39 1cbd 4bd6 d4bd
000000c0: 6e25 153d 2a0d ff3c 28eb f63d a425 babc
000000d0: 25c4 2ebd c14b 173d e5da d63d a141 25bd
000000e0: 97b6 b13d 9f86 dfbb f97e 693d ff91 0fbd
000000f0: e772 e83d d06c 7bbd 73f8 f0bd e8d8 e8bd
00000100: 4b57 80bd a3bc c13d 7b8c 723c e283 50bc
00000110: 7022 f83c 4a8e 783d 9a53 983c 8dbc c5bb
00000120: 7c0d e53d 9631 043c 0b45 013e c04e f23a
00000130: 54b3 533c 4b24 b33c 5869 893d b5b3 94bd
00000140: 6c80 2dbe 07c0 01be 3a8d e4bc b102 c73d
00000150: 0cd2 2abe ce47 303d d6ef 7d3d 922d 3b3d
00000160: 8ad2 bbbc 7748 d03d c3c9 323c bd6d a5bd
00000170: 4259 4cbd abf2 9e3d 4b22 d9bd bcf6 c5bd
00000180: ad2e 20bd 20e7 083e 6828 c53d 2149 67bd
00000190: 1837 da3c aaac 9ebd ea98 8c3c ed02 643d
000001a0: 9ba3 ea3d 6270 0f3d 7f77 10be eabe e33d
000001b0: b3bb ab3c 4dbc b33d e20e 873d 0c53 0e3e
000001c0: 5f22 fc3a 9458 3bbd 972e 2dbd 315d 29bd
000001d0: dd55 9ebd 94dd b93d e878 373d 16f4 883d
000001e0: 0d23 90bc 3581 07be 32cd 8a3d 7f42 08be
000001f0: 344e 143d 0272 0fbe 8575 41bd c5a7 debd
00000200: 667d 5bbd 9bfc d2bc f947 d83d d872 ec3d
00000210: fc9f 57bd 2cd5 6fbd 34e3 17be 2030 4e3d
00000220: 000c 87ba de8b 1c3e 3811 213d 36f5 783d
00000230: a597 b9bd de10 3dbd 55fe 0b3e 68c7 01bd
00000240: 25d3 983c 618c 97bd 7a9b 723c cb9e f63d
00000250: 052e 8bbd 2714 debc e503 13bc c466 043e
00000260: 0550 a2bd 29a8 b33c bbc6 a03d d640 7f3d
00000270: e538 c3bd 75a4 863d 09bf b3bd 6565 62bd
00000280: 3008 ef3d fefc b0bd 408d 99bd 6402 613d
00000290: 690e 8fbd 22e6 25ba c9bf c13c bf79 77bd
000002a0: 6d6c bfbd 0986 c43d cd0b 5b3d 1417 cebd
000002b0: ef21 afbd a89e ca3d 3af4 ce3d e331 b4bd
000002c0: 9e23 f2bc 012e b9bc d5a8 ba3d 893d a3bc
000002d0: 45f1 3fbd 9319 2abd 37ca 98bd 5ca3 a9bd
000002e0: 4b87 dc3d 0196 9cbc b178 afbd e191 56bd
000002f0: 8d86 613d fb1a 66bd 06ca 1c3e cc4c 1d3d
00000300: 593f 15be 24be 213e 5f16 afbd d361 0b3d
00000310: a7bd ddbc 41fe 783d ad19 24bd c281 babd
00000320: 529b 0d3e 4cda ae3d 2b20 1ebd e76b ce3d
00000330: 21f3 c2bc 8396 77bc 6d4f 84bc 6561 94bd
00000340: 96a1 013e 4b2d 45bd 199a 823d d5cf 033e
00000350: 0bfb 03bb 5fc9 93bd dcb8 4ebe 7266 53bd
00000360: 92fc e9bc 32d1 a23d ee4a 393e bcbd bbbd
00000370: a86a 90bd 4402 eabc e3db 94bd dfba bf3d
00000380: 8237 a93d ba80 1cbd 05ec dfbd 4917 2c3d
00000390: 5bc8 24bd 9127 f8bc 7037 363e 0b71 b2bc
000003a0: 7765 ea3c 1c42 9abd ff9e a33d b929 0a3e
000003b0: fa06 3bbd 327c c8bd 5aea e83c 1192 c8bd
000003c0: 9ed8 bc3c 3154 e93c f980 93bc e23f 8d3d
000003d0: 0eda 733d 8485 773d 9ab0 c9bd 62a3 433c
000003e0: eba3 823d 2a15 9e3d 2b06 59bc d088 babc
000003f0: 9bcc afbd 68cc 503c dc72 103e 8003 633d
0.0457685 0.023995653 0.061658032 0.07682261 0.1068151 0.13605344 -0.089092165 -0.06898882
0.08965921 0.047168516 -0.046699576 -0.03722812 0.001678642 -0.08337029 0.052263968 -0.09617163
0.058165815 0.09547359 -0.050225805 0.06843026 0.17815828 0.11518606 0.09043324 -0.121636026
0.11617931 -0.014216091 -0.051593974 0.039349653 -0.10731471 -0.14661235 -0.059550658 -0.10625918
0.05878335 -0.018531391 0.09855918 0.03956744 0.046810478 0.09974331 -0.017938057 -0.060617052
0.017924892 -0.096112795 -0.07796217 -0.09287844 -0.028109387 -0.11187951 -0.038140934 -0.10392436
0.03641265 0.031134207 0.12056571 -0.022723027 -0.042667527 0.03693748 0.104909696 -0.04034579
0.086774044 -0.006821468 0.057005856 -0.035051342 0.11350041 -0.06138307 -0.11766138 -0.113694966
-0.0626665 0.09459808 0.014804001 -0.012726756 0.030289859 0.060682572 0.018594552 -0.00603444
0.111842126 0.008068463 0.12623994 0.0018486604 0.012921173 0.021867892 0.06709546 -0.07260839
-0.1694352 -0.12670909 -0.027899373 0.0971731 -0.16681689 0.04303723 0.061996303 0.045697756
-0.022927541 0.101700716 0.010912362 -0.080775715 -0.04988981 0.07761129 -0.10602244 -0.096662015
-0.039107013 0.13369417 0.096268475 -0.056466226 0.026637599 -0.07747777 0.017162759 0.055666853
0.114569865 0.035019286 -0.14108084 0.11120398 0.020963525 0.0877615 0.065946355 0.13898867
0.0019236318 -0.04573877 -0.04228076 -0.04134864 -0.07731221 0.09075466 0.04479304 0.06687181
-0.017594839 -0.13232882 0.06777419 -0.13306616 0.036207393 -0.14008334 -0.047231216 -0.10871843
-0.053586386 -0.025755217 0.10560603 0.11545342 -0.052642807 -0.058552906 -0.14832765 0.050338864
-0.0010303259 0.1528773 0.03932306 0.060780726 -0.09062127 -0.046158664 0.13671239 -0.03168431
0.018655369 -0.07399822 0.014807576 0.12042006 -0.06795887 -0.027109219 -0.0089730965 0.12929827
-0.07925419 0.021930771 0.07850405 0.06231769 -0.09532336 0.065743364 -0.087766714 -0.05527248
0.116714835 -0.086420044 -0.074976444 0.05493392 -0.069851704 -0.0006328543 0.02365102 -0.06041884
-0.093468525 0.09595878 0.05347805 -0.100629956 -0.08551394 0.098935425 0.10105176 -0.08798578
-0.029558 -0.022604944 0.091142334 -0.019926803 -0.046860952 -0.041528296 -0.074604444 -0.082831115
0.107679926 -0.019114496 -0.08567942 -0.052385215 0.05505996 -0.056178074 0.15311441 0.038403317
-0.14574946 0.15795189 -0.08549189 0.03402884 -0.027067972 0.06078935 -0.04006355 -0.091067806
0.13828781 0.085377306 -0.038604897 0.100791745 -0.023797574 -0.015111568 -0.016151154 -0.07245139
0.12659296 -0.048138898 0.06377048 0.1287225 -0.0020138647 -0.07216143 -0.20187706 -0.05161137
-0.028562818 0.07950057 0.1809499 -0.09167048 -0.07051593 -0.028565533 -0.072685026 0.09361815
0.082625404 -0.0382087 -0.10933689 0.042014394 -0.040230136 -0.030292304 0.17794585 -0.021782419
0.028612835 -0.075321406 0.079893105 0.13492478 -0.04566095 -0.097893134 0.02843206 -0.09793485
0.02305251 0.028482528 -0.018005835 0.0689695 0.059534125 0.060430065 -0.09848137 0.011940809
0.06378921 0.077188805 -0.013246099 -0.022770315 -0.08583947 0.012744047 0.14106315 0.05542326

main.0.bias f4 [64]
00000000: 8024 8ebb 000e 9bbd 8229 0dbe 737e 783c
00000010: ecb6 d4ba 8180 c33d 5e09 82bd ff96 23be
00000020: ec68 c2bb f0a7 1f3d c834 e03c d168 ecbd
00000030: 303c 0fbd 847f cd3c 157d 133d f318 c9ba
00000040: facb f0bd 2d1a 42be f550 84ba e8fe c3bd
00000050: cd33 d13c ea8a d9bc 072e 403d 5dc4 98bc
00000060: 74c2 f33a aac4 893d db14 553d 0a0a 013d
00000070: b6ae e33c 7156 fdbd 0d37 20be fb72 56bb
00000080: 2f4b 93bd f95c 18bd c8b6 12be 6d93 37bb
00000090: 00cb 48bb 756c 86bd 57c6 80bd 5f0e 37bd
000000a0: 1ca4 4dbc ab95 8fbb bccb e1bd 4b9e 95bb
000000b0: f439 8ebb 65ed 9dbd 4f7f 3cbe 592d f1bc
000000c0: bca2 7dbc b9cf 3fbe 123e ebba fc6a 22be
000000d0: 4dde a93b 0b29 78bd 3f5b e03c 6039 6bba
000000e0: e439 b23d 5a3f c5bd a50d 44bb ede9 b4bc
000000f0: 2228 32be afa0 bebc d4b0 41be de3a 0cbc
-0.004337847 -0.0757103 -0.13785365 0.015166867 -0.0016228831 0.095459945 -0.06349443 -0.15975569
-0.005932918 0.038978517 0.027368918 -0.1154343 -0.03496951 0.025085218 0.03600796 -0.0015342518
-0.117576554 -0.18955298 -0.0010094928 -0.09570104 0.025537396 -0.026555497 0.046918895 -0.01864832
0.001859738 0.06726964 0.052021842 0.031503715 0.02779327 -0.12370003 -0.15646 -0.0032722342
-0.071920745 -0.03719804 -0.14327538 -0.0028011457 -0.0030638576 -0.06563655 -0.0628783 -0.04469144
-0.012551334 -0.0043818555 -0.110251874 -0.004565989 -0.0043404046 -0.07711295 -0.1840794 -0.029440569
-0.015480693 -0.18731584 -0.0017947576 -0.15861124 0.005183971 -0.060586017 0.02738726 -0.0008973088
0.08702448 -0.09631224 -0.002991536 -0.0220842 -0.17398122 -0.02326998 -0.18915111 -0.008558957

main.2.weight f4 [128, 64, 4, 4]
00000000: 4240 88bd 136c 4cbd 5170 0b3d 0439 7abd
00000010: 5faf a1bd 05d6 4ebd 58a6 073d 3bce 44bd
00000020: 2d1e 17bd 5e43 98bc cae8 703d 5011 68bd
00000030: 73f1 c7bc 25fa 453d 8797 553d e004 04bb
00000040: a099 8cbd c9d2 35bd 57ea 933c 9012 4dba
00000050: 5fa5 80bd c50b 013d 7c41 9c3d 7e55 51bd
00000060: 0d0b 8fbd 5d51 ec3c c29b fc3c e60a 1abd
00000070: ed30 ddbc d65d 2e3d 403b b03d 5cd0 40bc
00000080: ba51 833d a9cb 8e3c 2b80 e73c 7b1c a03b
00000090: d0cb 693d 9f35 723d dd2d 8e3b 1479 0e3d
000000a0: 33cd 473d fe3d 293d 805c 643d e477 143c
000000b0: d538 4b3d c69d 823d 5eec 163d d1ec 513d
000000c0: 9ec1 5bbd 5f25 08bd 0f55 6b3c 2fe1 75bd
000000d0: 9a48 7dbd f313 eebb f215 133d de9b 43bd
000000e0: 12b7 cebd 2980 10bd e95e 3a3d a208 3dbd
000000f0: 6d81 15bd 3d24 e6bb 691a 0f3d cd12 f2bc
00000100: b0b7 0d3d a5b7 003e 61b7 493d 0b58 503d
00000110: 9707 66bc 45ca 4b3d 74b0 7b3d 5150 fa3b
00000120: cc98 873c a15a d53d 85c5 ae3d 0158 263d
00000130: 8566 2c3d 406a e43d 162e 9a3d 91c6 25bc
00000140: 1211 cbbd 30df 2d3d 3b9d b6bc 8208 4dbd
00000150: a9f8 d5bc 20fc cc3c 38b6 0abc 78dd 9dbc
00000160: 0f70 71bd 1b60 373d 2112 4bbd ca60 c7bc
00000170: e24c f7bc 36d9 163d 11ae 25bd f99b 69bd
00000180: b9e8 3f3d 8e31 373d 1c41 cdbc d12c 89bd
00000190: eede 6d3d 7a82 dbbc 7983 1c3c a6f9 8cbd
000001a0: 9450 5d3c bbec 0539 acbf 73bc 655c 23bd
000001b0: 856d e9bc da70 90bc cd45 e73c 462b 2bbd
000001c0: 962a 33bc 87d5 9f3d 97c7 28bd b9a8 a2bd
000001d0: 32e2 07bd 5e98 fa3c 597b de3c 85ca a6bd
000001e0: fa89 79bc 3612 d13c 0312 bfbc 5d96 76bd
000001f0: 27a2 913b ab80 fb3c 1b3e a6ba 5d75 febc
00000200: 3532 d6bc 2576 99bc bf62 25bb e5d0 08bd
00000210: 61ce ddbd 460c bdbc da28 0bbd ea65 5ebc
00000220: fe7b 7abd 4320 11bb b3c0 8d3c 7569 55bd
00000230: a0e1 66bd ea55 bbbb 9e5d f739 1878 9d3c
00000240: 0b61 1bbc adb0 6f3d 7ca8 403d 2e06 953a
00000250: de3a 10bd 33d1 583d c5f5 ef3c 0a45 9a3c
00000260: 3e61 dabb d1b5 c23c 2d1f 3f3d 3d55 8dbc
00000270: 52f3 0cbd d815 233d 322d 933d d285 e73c
00000280: 280d a6bd 0457 9a3c 6845 26bc 44b9 0f3c
00000290: 8684 1bbd 1466 483d dbe6 183c 4491 c0bc
000002a0: 19d0 98bd 52f7 a93b d64c 1bbd 58e2 8aba
000002b0: 1088 b5bc cfbf 073d 5465 f6bb d4df ef3b
000002c0: 0510 9dbb 987f c83c abd6 0e3d fa1d b8bd
000002d0: dfbb c3bd add0 d93d 9cdf debb 6e19 c4bb
000002e0: cc8f ac3c 0324 1c3d b7a0 5e3d 22f7 e5bd
000002f0: c706 04be 45f6 fe3d ebf5 9bbc 22c3 bd3a
00000300: a7d5 58bd 1663 7abc 02b1 4e3c 26e0 8fbc
00000310: 3a40 07bd 8ce9 17bc d157 223d 29c0 e3bc
00000320: 8ea2 1dbd 4db4 98bc 270a 0b3d 7723 d0bb
00000330: e49d d8ba 9e7b 9f3c 202d 9f3c e450 8bbc
00000340: 5ba7 99bc 3166 1fbd 76bc b53d ae3e ffbc
00000350: e203 5cbd 433d 3fbd f58a a13d 7f08 8dbd
00000360: 69f1 85bd c74e 34bd 95db 843d 9c4c 3ebd
00000370: 5f21 48bd 8ecb 1ebd dc7c 983d 2cf6 65bd
00000380: 86de d1bd c015 c7bc c570 5fbd 9294 65bd
00000390: 0949 93bd 0b10 44bd 2a99 2dbd e112 60bd
000003a0: 6a91 9fbd 5ab8 73bd 2f16 54bc 660a 64bd
000003b0: 59fa 12bd f143 3cbc b808 c03b 2c27 52bd
000003c0: 5f21 87bc c4f8 8b3c 93db 543d 6353 9c38
000003d0: 01a9 f2bb 384f d93c 44e0 263d f808 7b3c
000003e0: 1925 d43c 57fd 793d ca2b bc3d 6690 1b3c
000003f0: d12d e63c 80f9 b63c 2b38 893d 75a8 a83c
-0.06652881 -0.049907755 0.03404266 -0.06108953 -0.078947775 -0.050497074 0.033117622 -0.04804824
-0.036894012 -0.01858681 0.058815755 -0.056657135 -0.024407124 0.04833426 0.05214646 -0.0020144507
-0.06865239 -0.044390474 0.018056078 -0.00078228954 -0.06281542 0.031505365 0.07629678 -0.051106922
-0.0698453 0.02884739 0.03083599 -0.03760805 -0.027000869 0.042569958 0.08605051 -0.011768427
0.064120725 0.017431097 0.028259357 0.0048862076 0.057079136 0.05913317 0.0043389634 0.034783438
0.048779678 0.041318886 0.055752277 0.009061787 0.049614746 0.06377749 0.03684651 0.051251236
-0.053651445 -0.033238765 0.014363541 -0.060029205 -0.061836816 -0.0072655617 0.0359096 -0.04775607
-0.10093512 -0.035278473 0.04550067 -0.04615081 -0.036500383 -0.007023363 0.034937296 -0.02954998
0.034599006 0.12570055 0.04924715 0.050865214 -0.0140398955 0.049753446 0.061447576 0.007638969
0.016552351 0.10417677 0.085337676 0.04061127 0.042089958 0.11153078 0.075283214 -0.010118143
-0.09915365 0.042449176 -0.02229177 -0.05005694 -0.026119547 0.025022566 -0.008466296 -0.019270644
-0.058944758 0.044769388 -0.049577836 -0.024338145 -0.030188028 0.036828242 -0.040449206 -0.057033513
0.0468528 0.044724993 -0.02505546 -0.06698001 0.05807393 -0.026795615 0.00955283 -0.06883554
0.013507981 0.00012772057 -0.014877241 -0.039883036 -0.028494606 -0.017631937 0.028231526 -0.041789316
-0.010935446 0.07804399 -0.04120597 -0.079423375 -0.0331747 0.030590232 0.027158426 -0.08144096
-0.01523065 0.025521379 -0.023324018 -0.06020199 0.004444379 0.030701002 -0.0012683304 -0.031061823
-0.026146987 -0.018733094 -0.002523586 -0.033402342 -0.10830379 -0.023077141 -0.033974506 -0.013574103
-0.061153404 -0.0022144474 0.0173038 -0.052102525 -0.056367517 -0.005717029 0.00047181261 0.019222304
-0.009483586 0.0585181 0.04703568 0.001136964 -0.03521239 0.052933883 0.029291997 0.018831749
-0.006664424 0.023768337 0.04666059 -0.017252559 -0.034411736 0.039815754 0.07186355 0.028262053
-0.08107978 0.01884032 -0.010148384 0.008772198 -0.03796818 0.048925474 0.009332384 -0.023506768
-0.074615665 0.0051869536 -0.037915073 -0.001059602 -0.022159606 0.033141907 -0.0075194035 0.0073203836
-0.0047931694 0.024474904 0.034872692 -0.089900926 -0.09557318 0.10635505 -0.0068015587 -0.005984477
0.021064661 0.03812028 0.05435249 -0.112287775 -0.1289321 0.12449316 -0.019038161 0.001447771
-0.05293813 -0.015282413 0.012615444 -0.017562937 -0.033020236 -0.0092719905 0.03963453 -0.02780159
-0.038485102 -0.018640662 0.03394523 -0.006351884 -0.0016526547 0.019468125 0.019430697 -0.017006345
-0.01875656 -0.038915817 0.08873837 -0.031157818 -0.05371464 -0.046689283 0.07887832 -0.06886386
-0.06540186 -0.04402044 0.064871944 -0.04645978 -0.04885995 -0.038768344 0.0744569 -0.05614297
-0.10247521 -0.024302363 -0.054550905 -0.05604989 -0.07191665 -0.047866862 -0.042382397 -0.054705504
-0.077914074 -0.059501983 -0.012944742 -0.05567398 -0.03588328 -0.011490808 0.0058604144 -0.05130689
-0.016495405 0.017086394 0.051967215 7.454192e-05 -0.0074054007 0.026527032 0.04074122 0.015321963
0.025896596 0.06103262 0.091880396 0.0094948765 0.028098019 0.022335768 0.06700166 0.02058814

main.2.bias f4 [128]
00000000: b205 973c 9854 f9ba af54 ccbd 5dc8 57bd
00000010: 78aa 40bd ac2f 023c afe6 47bd 90e6 e1bb
00000020: 0561 97bc 165c 82bd 8726 1ebd 80eb 8a3c
00000030: 321a 44bd de31 4ebd e779 f4ba 6b5e 8d3c
00000040: 9e0c 523c f4ea ecbc c4f5 bd3c 3e7c 533c
00000050: fccc 3abc 3701 efbc d7fc 28bd ce3f 30bc
00000060: 5d45 523d a94f 45bd d9f4 b8bb f1fc ca3c
00000070: c86e 73bd a36a 12bd 508b e1bc 3ad9 733c
00000080: 7021 5fbd afe4 18bd 781a 023c 8e68 b5bd
00000090: 6297 32bd ced3 efbc dd16 933d fd90 0e3c
000000a0: c355 79bc 2768 07bd 13a8 4e3b bb38 e13b
000000b0: 8cf3 043c 14c9 533c 2c60 08bd cd09 223c
000000c0: 3790 71bb eb3b 1cbc ddb0 50bc 4bdb 48bc
000000d0: 1f82 f2bc d057 c73c 7360 f0bc 80bd 4a3c
000000e0: 93b3 8dba 83a2 d4bc 5b9a 8ebd d01b 323c
000000f0: b6ae 0dbc 4466 083b bcba 8fbd d014 f13b
00000100: fa10 bc3c b3e6 feba 1507 8c3c 29b7 68bd
00000110: f15f 71bd 8f66 52bc 6bf9 21bb 3c98 b9bc
00000120: 4c9f 85bb c2f7 f9bb bacc c539 02f0 7bbc
00000130: 7702 1fbd 9cac 4abd 71c8 cbbc 654f c1bc
00000140: eb82 09bd 17f3 9f3c 5b79 d03b e8a2 18bc
00000150: 8ead ebbc 5d7e 15bd d7fb 3cbb 548f e0bc
00000160: 81bd 8e3d 9a82 d9bc 61dc eebc edf6 ca3a
00000170: b835 143d a765 8fbc 2fd0 2d3d db62 a9bc
00000180: 9eba 503d 6a20 bebc 3f35 b0ba 3c0d b03c
00000190: 067d 16bd a113 f4bc 2601 be3b 4a09 3abd
000001a0: e846 a4bd 2dec af3c f20a b63c f18e 923c
000001b0: 196a f1bc 06d1 d93a b612 e33c e86c e5b8
000001c0: 4884 09bd 8b0d 16bd 3832 feba fa39 ebbc
000001d0: 07e7 29bb 275b 92bc 9493 21bd b061 0abc
000001e0: e6b7 033d f4d5 933b 93da 703c 6a0e b539
000001f0: c9df 09bd 06f7 05be f643 62bd f3d6 dfbb
0.018435333 -0.0019022403 -0.099770896 -0.052681316 -0.04703757 0.007945936 -0.04880398 -0.0068939403
-0.01847888 -0.0636522 -0.03861096 0.016957998 -0.047876544 -0.050340526 -0.0018652052 0.017256936
0.012820391 -0.028920628 0.02318848 0.01290804 -0.011401411 -0.029175384 -0.041256752 -0.0107574
0.05133568 -0.048171673 -0.0056444225 0.024778815 -0.05943182 -0.035746228 -0.02753225 0.014883334
-0.054475248 -0.037327465 0.007940881 -0.08857833 -0.0436014 -0.029275801 0.07182095 0.00870156
-0.015218201 -0.03305831 0.0031533286 0.006873218 0.008114707 0.012926359 -0.03329484 0.009890032
-0.003685964 -0.00953577 -0.01273748 -0.012259315 -0.029603062 0.024333864 -0.029342866 0.012374282
-0.0010810964 -0.025956398 -0.06963035 0.010870889 -0.008647611 0.0020812908 -0.07018039 0.0073572174
0.022957314 -0.0019447416 0.01709322 -0.0568153 -0.058929387 -0.012841835 -0.0024715315 -0.022655599
-0.0040778276 -0.007628412 0.000377273 -0.015377047 -0.03882071 -0.04948102 -0.024875851 -0.023597429
-0.03357212 0.019525094 0.006362123 -0.009316184 -0.02876928 -0.036497463 -0.0028836632 -0.027412094
0.06969739 -0.026551533 -0.02915782 0.0015484967 0.036184043 -0.017504526 0.042434867 -0.02067702
0.050959222 -0.023208816 -0.0013443603 0.021490686 -0.036740325 -0.029794516 0.0057984767 -0.045419015
-0.08021337 0.021474922 0.022222016 0.017890425 -0.029469537 0.001661808 0.027718883 -0.00010939856
-0.03357342 -0.03663401 -0.0019393628 -0.028714169 -0.0025925057 -0.01786573 -0.039447382 -0.008446142
0.0321578 0.004511589 0.01470055 0.0003453375 -0.033660684 -0.13082513 -0.055240594 -0.006831044

main.4.weight f4 [1, 128, 4, 4]
00000000: e12a 88bd f40c 94bd f7e8 e13c 7314 513d
00000010: c830 f0bc 62be 4bbd c119 ab3c fa04 303d
00000020: 4901 36bd 6579 d8bc b229 e53c 8888 803d
00000030: 2d1c 8fbc 5d24 57bd 80ed 353d 772e a63d
00000040: 1311 b4bc 175c 56bc c512 a03b 5d71 c63c
00000050: 7a35 ab3b 4580 f53a c587 e53c 2547 d13c
00000060: 32bf c2bc 60a0 15bc b615 70bb d30d 1abc
00000070: 6c57 37bc 5531 11bd 570e b0bc 536d 4c3b
00000080: 3273 75bd 852e 2cbd 0017 6bbd 666f a8bd
00000090: f91a 33bd 88d4 9cbc 2a95 17bd e8f0 54bd
000000a0: 0f56 9bbd f182 e8bc 40d3 41bd ebc1 71bd
000000b0: f72d 99bd 71d2 2cbd 28b7 32bd a064 99bd
000000c0: ac3b 4dbc 04ba acbc 301f 02bc 9022 c0bc
000000d0: b20e 22bd 97eb 00bd 3158 77bd fec6 6dbd
000000e0: d519 22bd f8cc 95bc 7c23 28bd 9a94 fcbc
000000f0: a398 3ebd 9c6a 26bd 4c47 78bd ab73 18bd
00000100: 5b3a bc3d 180c 6b3d c5fe 643d 56c5 803d
00000110: 82dd aa3d 04e0 a23d 6fdc b03d 5cfb 573d
00000120: ae75 8b3d 2329 7b3d b4de 8c3d 270f 8c3d
00000130: ed47 933d b809 543d 52f2 483d ea4c 663d
00000140: 8f79 b1ba 0da3 97bc 4a30 aebc e246 4fbc
00000150: 7502 a8bc 37a4 09bc 8b5e 92bc 1044 d3bc
00000160: 0cb5 133b e94c 08bc a7b9 aebc ce77 2fbd
00000170: 21fd 09bc 7908 41bc 2491 15bd 357e d9bc
00000180: 081c 5f3d 22b6 543d a5e0 af3c 70ac 2d3d
00000190: 373f 0e3d a364 003d c05f 163d 5f73 e83c
000001a0: 70d5 ff3c d5be 6a3d ba2c 063d e4ff a03c
000001b0: 7f0d 353d 0a16 573d 8aea 293d e78b 933c
000001c0: a908 a63d 862a 943d b23f ba3d 023e b73d
000001d0: 419e 8f3d 8d9d 933d de36 ae3d 3d52 9d3d
000001e0: 1c38 a43d cfdf 723d d50e c83d a098 a33d
000001f0: a6b7 803d 57b2 a93d 8fc0 c03d 7b3f be3d
00000200: d0da 6c3c e64d 12bc 0c3a dbbb 9e3b 293b
00000210: 79d9 19bc 4755 433c db09 313c 06c0 86bb
00000220: aa3c fa3a 90bb 0bbc 1792 05bc 3d36 8bbc
00000230: a5e9 193c e509 25bc 7784 8abc c758 433c
00000240: ed7b 88bc 11a3 01bc 2fef bcbc d437 4e3c
00000250: 14f6 9cbc e169 cb3b a3b4 743c 7d02 4abc
00000260: 2369 1abc dbbe 913a 3d8f 0aba 1705 8a3b
00000270: 591f f4bc 2ce2 06bd cc4b d4bc d6ff a4bc
00000280: ed43 8e3c 1b9f 023d 926a 893c 4ba2 e53c
00000290: 44a3 903c 8971 093d ed45 c33c e5da 463c
000002a0: 120a ea3c 67b9 653b 0c72 e0bb 8904 053d
000002b0: 3fc6 383b 74a1 ea3c 9b63 703c 4a1a 5f3a
000002c0: 8041 b5bc 34a8 a8bc c501 02bd 0a06 23bd
000002d0: 3b3d f43b 7e17 48bb b936 513c 38fc bfbc
000002e0: 8548 613a 2c08 d5bb e969 d93b 6731 35bc
000002f0: 3ca5 5cbc 63b4 e9bc 861c a3bc a908 cbba
00000300: 1689 063d 3ed9 c63a 37f2 e33c 0599 0b3d
00000310: 3d83 b63c b557 58bc 487a 2aba 2034 133d
00000320: b4c7 c13c bbc5 b23c afc7 813c 6136 893c
00000330: 4afb df38 28f1 d93c 2834 07bb 725d d83a
00000340: 1ed9 093d 55e4 303d 5db3 973c d803 323c
00000350: b495 423c 1717 a43c afea 1c3b 03dc 1a3d
00000360: fd66 373c 0c11 503c 784a 8a3c 9115 e03c
00000370: 6ab8 173b 6dee f33c edca b93c 9540 4d3c
00000380: dcfc f93b 270d 3f3d ac21 d73c 6f4e d83c
00000390: ddb2 1b3d 985f af3c 015e 2d3c f211 4dbc
000003a0: 71ef 043d d38e 343d d089 c63c 3469 083b
000003b0: 5171 613d 72da a03c 05f3 0d3d f58c dc3c
000003c0: 0567 1e3d 6ea4 523d e41e 153d e401 453d
000003d0: 49b0 493d b923 1b3d f6c1 953d 6a27 083d
000003e0: 02cb 133a a94f 253c 36e5 403b d9c0 fd3c
000003f0: acbf a33c 1bce 883c 4211 153b ae2a 433c
-0.066488035 -0.07229033 0.027576907 0.051044893 -0.029320136 -0.04974211 0.020886304 0.042973496
-0.04443482 -0.026425073 0.027973983 0.06276041 -0.01746949 -0.052524913 0.04441595 0.08114331
-0.021980798 -0.013083479 0.00488505 0.024223978 0.0052248808 0.0018730244 0.028018842 0.02554662
-0.02377281 -0.009132475 -0.0036634034 -0.00940271 -0.011190277 -0.035447437 -0.021491213 0.0031193092
-0.059924312 -0.042036552 -0.05739498 -0.082243726 -0.043726895 -0.019144312 -0.03700749 -0.05198756
-0.07584774 -0.02838275 -0.047320604 -0.059022825 -0.0747947 -0.04219288 -0.043631703 -0.07489896
-0.012526434 -0.021084793 -0.007942006 -0.02345398 -0.039564796 -0.031474676 -0.06038684 -0.058051102
-0.039575417 -0.018286213 -0.041049466 -0.030832577 -0.046532284 -0.040629014 -0.06061487 -0.037219685
0.09190818 0.05738458 0.05590703 0.06287639 0.083430305 0.07952884 0.08635794 0.05272995
0.06809555 0.061318528 0.06878415 0.068388276 0.07191453 0.05176708 0.04905922 0.056225695
-0.0013540256 -0.018510366 -0.02126326 -0.012651177 -0.020508984 -0.008400968 -0.017867347 -0.02578929
0.0022538332 -0.008319118 -0.02132876 -0.042838864 -0.008422167 -0.011781805 -0.03651537 -0.026549438
0.054470092 0.051931508 0.021469424 0.042400777 0.034728255 0.031345975 0.036712408 0.028375326
0.031229705 0.057310898 0.0327575 0.019653268 0.044202324 0.052511252 0.04148344 0.018011047
0.081071205 0.07234673 0.0909418 0.08947374 0.070126064 0.07207785 0.08506559 0.07681701
0.080185145 0.05929547 0.09768454 0.07988095 0.06285028 0.08285969 0.09411728 0.09289452
0.014456466 -0.008929705 -0.0066902693 0.0025822888 -0.009390228 0.011922187 0.010805572 -0.0041122464
0.0019091566 -0.008528605 -0.008152506 -0.016993636 0.009394084 -0.01007316 -0.016908867 0.011923022
-0.016660655 -0.007912413 -0.02306327 0.012586553 -0.019160308 0.00620769 0.014935645 -0.012329695
-0.009424481 0.0011119501 -0.00052856264 0.0042120325 -0.029800104 -0.032930538 -0.025915049 -0.020141523
0.017366374 0.031890016 0.01677445 0.028031489 0.017655976 0.03355554 0.023837054 0.012137149
0.028569255 0.0035053135 -0.006849533 0.03247503 0.0028194336 0.02864144 0.014672185 0.0008510692
-0.02212596 -0.020588018 -0.03173997 -0.03980068 0.0074535883 -0.003053158 0.012769395 -0.023435697
0.0008593875 -0.0065012183 0.00663494 -0.011059142 -0.013467129 -0.028528398 -0.019911062 -0.0015490252
0.03284558 0.0015170944 0.027825458 0.034081478 0.022279376 -0.013204505 -0.00065032067 0.035938382
0.023654796 0.0218228 0.015842287 0.016749563 0.00010680275 0.02660425 -0.0020630453 0.0016507341
0.033654325 0.043186504 0.018518144 0.010865174 0.011876512 0.020030541 0.0023943593 0.037807476
0.011193988 0.012699377 0.016881213 0.027354034 0.002315069 0.029776776 0.02267977 0.012527605
0.00762902 0.046643402 0.026261173 0.026404588 0.038012374 0.021407887 0.010581494 -0.0125164855
0.03245491 0.04408152 0.024235636 0.002081466 0.055039708 0.019635413 0.03465559 0.026922682
0.038672466 0.051426344 0.036406413 0.048097506 0.049240384 0.037875865 0.07312386 0.033240713
0.00056378555 0.010089793 0.0029433495 0.030975746 0.019988857 0.016699841 0.0022745882 0.011912031
