discriminator_y.pth (torch, 548376 bytes, 5 tensors)

main.0.weight f4 [64, 3, 4, 4]
00000000: febe 58bd 1185 9a3d 9e0a 023e fe1b 3a3d
00000010: ee34 be3d 7583 833c fe41 4e3d 187c a4bd
00000020: ad1e c13c e4ee 98bc f268 1a3e 5adb b43d
00000030: 784b 18be f976 5dbd a81b afbd 15ab 2f3b
00000040: 3694 9abd 4950 24bd 8b24 cebd 1aec a9bd
00000050: 65b8 fd3c 2d92 2d3d 159a cb3d 36f2 b13d
00000060: 63d7 f6bd cfed 2cbd c187 373e 93b7 d53c
00000070: 77a8 16be 7fe0 3dbe b149 e4bc 0a7d ef3c
00000080: 07b5 0e3d 7922 6d3c 2c3d 6b3d 1413 d7bd
00000090: 8861 913d 7045 cb3d 483f 083e 4812 0e3e
000000a0: 5a40 27be f95f dbbc 0ce3 e23d b49b f53d
000000b0: bd34 48bd a2d6 91bc 90fe 69bd c445 123d
000000c0: 5a75 293d c4c2 5b3c dc31 a2bd da03 cf3d
000000d0: 577f 96bd f340 4dbd dd1d 7e3d a9ed 1c3d
000000e0: 5aff cc3c d68b 4b3d 4789 48be d52c a13d
000000f0: cb8e 67bc 87d9 573d 5c55 c03d ff28 b6bd
00000100: 4ffc 9ebb 601e 13be 3eb5 36bc 4f2b e0bd
00000110: 5b65 003e c6ad 103e d1ef fdbc bc6b 01be
00000120: 1020 f53d 6d69 2abe b1c1 3d3e f80d 473d
00000130: 23db 11bd a07f 96bc 4199 ffbc d3b9 d83c
00000140: 1743 58bc 4c3a e63d e718 db3d 413f a23d
00000150: c502 fbbd 2b47 51bd f162 e8bd a3af 983d
00000160: 4047 8abd 3b32 ee3c 6168 e33d 6734 a4bd
00000170: 6242 8abc 5601 e73d 828a fabd 5304 11bd
00000180: 8298 aabd c109 fc3c f69c debd ab86 81bc
00000190: 5413 0ebe f6a1 903d da1a 0f3d 9afd 473d
000001a0: 3f72 153e 61c9 5b3d 92c1 3dbc 0b5b 3cbd
000001b0: 5b22 92bd e2be 383c 0fbf 8bbd 61f3 b43d
000001c0: 29aa d43c c835 8f3d 1108 073e 998a aa3c
000001d0: 27ea 323e 2a22 08be 3460 26bd 5953 d63a
000001e0: 717b 7fbd 2517 59bc d0f3 fb3d 8cc1 9fbd
000001f0: 61dc 21bd 122a bfbd be73 37bd 18d9 cebd
00000200: 6c87 b8bd 08d1 20bd 3ee8 593d d8bb 663d
00000210: f451 bebd a953 ad3c 0be3 83bd 78ee 9cbd
00000220: 2fe8 fd3c 5fc1 2abd 4e2a 75bd 57e8 47bd
00000230: 3399 f13d 2351 923d 4b98 06bd b70a f33d
00000240: 3b9d 2b3b e6b2 e7bd 51a6 473c e90a 0abe
00000250: f674 073e d141 9d3d 4461 a4bd adb3 88bd
00000260: 6391 8f3d a93c c4bd 9e21 87bd e7a8 643d
00000270: 440b b9bc 08bd 67bd eaf4 3a3d c181 82bc
00000280: a96f 86bd aa68 1f3d c096 fe3d 8352 7b3d
00000290: 37f5 6cbd 7b14 b33d 26c1 2a3e 9963 f63d
000002a0: 12e3 92bd e79f 763d 6cf8 21bb 2b1b cc3d
000002b0: 5f95 4d3d d32b 30be eb80 4fbd d3c3 483d
000002c0: b91e e0bd 022e dabc b4cb 3c3d 8e02 44bd
000002d0: 10bd 9f3c ebb8 ba3d ae77 cf3d 6e25 b13d
000002e0: 28a8 a7bd 1872 5fbd eba8 593c e0e3 babc
000002f0: 6408 953c 284d 3fbe 2615 ebbb ea21 39bd
00000300: 1f87 d63c 3ba2 3fbd b43d 1c3d 0c55 313d
00000310: 51a0 11bd b3bf 5bbd 2883 b23d ea3c 8cbd
00000320: c31a 18bd d9db 18be b748 71bd 9e71 fc3d
00000330: 3801 e03b 5865 26be ea1f cdbd b6f3 183d
00000340: fffc 7fbd 2991 ebbd 3485 c73d 7ba9 a23d
00000350: ba23 2ebd 324a 6a3c be49 88bd f4b7 9f3d
00000360: 0227 d93d 3baf e9bd bacd f23d 3468 013e
00000370: a8e4 343e 0dfd 833c 2eb7 c03d d9f7 963c
00000380: 5fbd 98bd 796e e0bd 0fb6 d83c eaf8 11be
00000390: 2078 9cbd bfb2 9e3d 2ae5 ff3d 18b6 dc3c
000003a0: 0880 cabb bdec 9bbd 2c6b 193d a0f7 f93c
000003b0: 71e1 193e 37c0 a13d c3c8 a93d 89d4 59bd
000003c0: 6241 63bd 7752 8fbd 3e02 60bd 9814 bdbd
000003d0: f6f7 c1bd bede 05be 9aac 90bc 9439 df3d
000003e0: 167e 95bd ea21 00be f88d 8a3c c765 133e
000003f0: b1df c1bd aaf4 043e b5f2 ca3c 4f8f c1bc
-0.05291652 0.07544912 0.12699363 0.04543685 0.09287439 0.016053895 0.050355904 -0.080314815
0.023574198 -0.0186686 0.15079096 0.088309005 -0.14872539 -0.05406854 -0.08550197 0.0026804854
-0.075478 -0.04011563 -0.10065564 -0.08296986 0.030971715 0.042375732 0.09941498 0.08688776
-0.120528005 -0.04221898 0.1792288 0.026088512 -0.14712702 -0.1854267 -0.02786717 0.029234428
0.03484061 0.014473551 0.057431385 -0.10501686 0.07098681 0.099253535 0.1330539 0.13874161
-0.16333142 -0.026779162 0.11078462 0.11992589 -0.04887842 -0.01780254 -0.057127535 0.035711065
0.04137168 0.013413135 -0.07919666 0.101081565 -0.07348507 -0.05011077 0.0620402 0.038312588
0.025024105 0.049693905 -0.19583617 0.07869879 -0.014133166 0.052697685 0.09391281 -0.08894538
-0.004851855 -0.14367056 -0.01115161 -0.109457605 0.12538664 0.1412879 -0.030998142 -0.12638754
0.11969006 -0.16641779 0.18530919 0.048597306 -0.035609376 -0.018371403 -0.031201007 0.026455795
-0.013199589 0.11241588 0.10698109 0.07922221 -0.122563876 -0.05109326 -0.113469966 0.07455375
-0.06751871 0.029076686 0.11103893 -0.080178075 -0.016877357 0.11279552 -0.122334495 -0.035404515
-0.0832987 0.03076637 -0.10869782 -0.015811285 -0.1387456 0.070621416 0.034937717 0.048825838
0.14594363 0.053658847 -0.011581795 -0.045985263 -0.07135459 0.011275979 -0.06823551 0.08835483
0.025960045 0.0699268 0.13186671 0.020818042 0.17472135 -0.13294283 -0.04061909 0.0016351744
-0.062373582 -0.013250147 0.12302363 -0.07800588 -0.03951681 -0.09334196 -0.044788115 -0.10100001
-0.09010205 -0.039261848 0.0532 0.056331486 -0.09292975 0.021158056 -0.064397894 -0.07662672
0.030994503 -0.04168832 -0.059854798 -0.04880556 0.117967986 0.07144382 -0.03286008 0.11867278
0.0026186246 -0.11313419 0.012185649 -0.13480724 0.13228211 0.07678569 -0.080263644 -0.066748954
0.07010152 -0.095818825 -0.06598209 0.05582514 -0.02258838 -0.05657676 0.045643725 -0.015931012
-0.06564266 0.038918175 0.12431097 0.061357986 -0.057851043 0.08744141 0.16675243 0.120307155
-0.071722165 0.06021109 -0.0024714721 0.099661194 0.05019128 -0.17204218 -0.050660055 0.049014878
-0.1094336 -0.026633266 0.046092704 -0.047854 0.019499332 0.091173016 0.10130249 0.08649717
-0.0818637 -0.054552168 0.013284902 -0.022813737 0.018192478 -0.18681777 -0.007174152 -0.04519836
0.026187478 -0.046785574 0.038144782 0.043293998 -0.03555328 -0.053649615 0.08716422 -0.06847556
-0.037134897 -0.14927615 -0.058907237 0.12326358 0.006836083 -0.16249597 -0.10015853 0.037341796
-0.062497135 -0.115022965 0.09742203 0.07942482 -0.04251454 0.014299916 -0.0665469 0.07798758
0.10603143 -0.11410376 0.118556455 0.12637407 0.1766535 0.016111875 0.09409939 0.01842873
-0.07457995 -0.10958571 0.026454 -0.1425511 -0.076400995 0.07748937 0.124948815 0.026942298
-0.0061798133 -0.076135136 0.037455723 0.030513585 0.15027405 0.0789799 0.082902454 -0.053181205
-0.055482276 -0.06998151 -0.05468964 -0.092324436 -0.09471123 -0.1307325 -0.017660428 0.10899654
-0.072994396 -0.12512937 0.0169134 0.14394294 -0.09466494 0.12983957 0.024773935 -0.023627905

main.0.bias f4 [64]
00000000: 9174 d6bd be7d 70ba 335f fa3b 6aba 9cbd
00000010: 5a64 9d3c 541a 213e 8808 a13c 508b 163e
00000020: bf94 8dbd 836d da3c 87ac 6cbd 42e5 bc3a
00000030: be05 f3bc c124 f1bd 6f98 eebd a4b2 92bd
00000040: 6a31 06bd bd51 b13d e8e9 bbbd 438c 8a3d
00000050: bcab f0bc 78f8 0abc 6dc7 813d 928d b7bd
00000060: e65d 0b3d 5e90 59bc 7dc8 a2bd 8ed3 113e
00000070: ad32 453b df03 08be 0334 3abd 75c9 8c3c
00000080: 986b b1bb 2b20 7b3b ebd8 0ebe 170b 1abe
00000090: 86c8 25be 20bc dc3a 88da 2dbe 6b50 0fbe
000000a0: 7563 e63d a582 a13d 5a88 ddbd 66bc 283d
000000b0: 9fba 5f3d 8380 253e 31cc c5bc 7e6d d73b
000000c0: 7940 c3bd d863 013e 69b3 6fbd 2034 8dbd
000000d0: 5c66 1abe 1b0d dc3d a167 6f3b 1697 18be
000000e0: a9e5 49bc afcf 20bd 98d1 273d 3cca a3bc
000000f0: 1883 87bd 4cd9 073d bab4 0fbe a9d9 34bd
-0.10471452 -0.00091740105 0.007640743 -0.07652743 0.01921289 0.157327 0.019657388 0.14701581
-0.06913137 0.026663547 -0.057781722 0.0014411586 -0.029665824 -0.117745884 -0.11650168 -0.07162979
-0.03276197 0.086581685 -0.091754735 0.06765034 -0.029378764 -0.008482091 0.063368656 -0.08962549
0.034025095 -0.013279049 -0.07948396 0.14240858 0.003009002 -0.13282727 -0.04545976 0.017185906
-0.0054144375 0.0038318734 -0.13949935 -0.15043293 -0.16189775 0.0016840734 -0.16977894 -0.13995521
0.11249439 0.078862466 -0.108170226 0.041195296 0.054621335 0.16162305 -0.024145218 0.006574332
-0.095337816 0.12635744 -0.05852071 -0.06894708 -0.1507811 0.10744687 0.0036530274 -0.14901385
-0.012322822 -0.039260563 0.04097137 -0.019993894 -0.06616801 0.033166215 -0.14033785 -0.04415289

main.2.weight f4 [128, 64, 4, 4]
00000000: 3bc0 8a3b a6e1 233c ee46 9f3c d2fa bdbb
00000010: 1dd6 8ebc f0e1 313d 3506 8e3c 3c69 9b3b
00000020: 32c6 013d e8d3 f53c 4875 81bc ce97 213d
00000030: 371f fabb d821 dc3c a0cb 3f3c 0873 a93b
00000040: c5e5 30bd 0b68 cc3c ce88 bcbc 84f2 9cbc
00000050: 694a 0ebc 455f caba 74ef a5bc 381e 65bc
00000060: e0d0 95bb b9dc 083d b4f3 0a3c d3ee cb3b
00000070: cddc 50bc bf16 8e3b b41c 7fbc b109 c03c
00000080: 7526 5c3c 4b06 0cbd 3e6f c43c 79cb 75bc
00000090: 3948 993c 5877 0f3c 8ae7 81bb 4950 4a3c
000000a0: 5071 cabb f40b c2bc d6cd 2e3d f68c 37bc
000000b0: 9ec7 cfbb e191 09bb 5cf0 313c 3ec4 d3bc
000000c0: cc96 9b3c 4962 583b 91ba c63c fa94 77bc
000000d0: bfb3 8c3c aef5 163d 2f51 24bc 87d7 e53c
000000e0: 40e3 2a3a e952 3a3c 538e 083c f9aa dcbc
000000f0: d824 7abc e7b0 0b3d fe15 73bc 188e 293d
00000100: b012 133c 62f7 99bc aeda 8abc b2d3 efbc
00000110: 5bc5 84ba cafc ad3c c507 0bbd b3b2 89bc
00000120: 0f4d 88bb cdc4 c83a 2bdd ec3c 4142 813a
00000130: 5d4a edbc 5a37 8fbc 3bee d0bc 9301 86bc
00000140: 167f 423c 406a 8d3a 80c6 9dbc 1c68 07bd
00000150: 2716 b7bc 2a4a 543c 28d7 b5bc 1fe8 46bb
00000160: e864 ae3c 3da2 8b3b 79bd bbbc 54f8 c7bb
00000170: 089c 0c3c 680c 22bc 042d aebc cad2 14bd
00000180: 3aad 10bd 4ed4 c8bc ac25 fbbc 0194 01bd
00000190: 7c60 17bd 5368 8cbc 98e7 dabc 9b9d fcbc
000001a0: d695 773c f39d 42bc 7157 d7bc b4e1 553c
000001b0: b7bd 56bc 0fb9 28bd d486 aebc ab4d 3d3a
000001c0: 09f8 f8bb bc3e 9bba d8c2 3f3c 535c e3bc
000001d0: df3b 0ebd 5d71 483b 5277 7ebc 42bc 02bc
000001e0: 15e6 22b9 ca63 8cbb 64dc 303b 141b 683c
000001f0: bebe 34bd fa7c 0abc 5fa9 25bc a7e8 97bc
00000200: 070f e7bb 293b 0cbd c5ed b13c 54eb 973c
00000210: 15bf d1bb 0723 00bd 73ac 5ebb 77f4 d03c
00000220: 4744 803c a08b 26ba bea9 9d3c dd47 02bd
00000230: 02b6 0cbd abf1 263c 40a6 3b3c 03bd 5dbc
00000240: 1df4 003a e075 9c3c ec31 7a3c 84be fdbc
00000250: 7bb9 0dbd 3217 b2bc 1fec e03a fb8e c13c
00000260: dc96 f43a 1ded 85bc b04f fdbc 3e6f 5dbb
00000270: b7b0 363c e121 d23b b98a 96bc a723 dcbc
00000280: c26a 053b aff7 463d 71d6 1e3d 15b4 f73c
00000290: 53e6 963d 49c7 d4bc b3b9 7e3d 4518 04bd
000002a0: 0de0 0e3d 253b 783c 55cf 563d 99c2 793c
000002b0: d076 f83c 9bbf 2c3b 5271 0a3d 2e0d c9bc
000002c0: 8d00 25bc c0e1 7d3b 0722 e5bc bb5d 00bd
000002d0: f073 9dbc 0d05 d73b 7852 63bc a97e 9bbc
000002e0: 70f3 7abc 188f 673c e6e4 c2bb 2235 643c
000002f0: 9077 853c a147 04bd 4209 03bc 0871 e5bc
00000300: e09c 10bd 931d 33bc 2418 e3ba f06c da3c
00000310: dd64 963b 584e 96bb 0fd9 983c 6867 2b3c
00000320: e87d edbb c549 153c 0ca8 ef3b 6d72 803b
00000330: 3e73 07ba b6c9 dabc fc4d 08bd e78f 86bb
00000340: 4781 b6bb 662f c6bc e6ce 93bc fe02 1abc
00000350: 26e3 753c 6928 afbc b87d 7ebc 4fda ee3b
00000360: c7bf 8cbc 70ab f0bc 7cd2 8339 8445 afbc
00000370: 5753 e3bc 4c20 563c 0fad 1d3c 5700 34ba
00000380: d940 fa3a 3bd0 5cba 41d4 a03c 6487 0a3c
00000390: aaf4 b43c 0b3b c63c 05f2 6c3c f4ce 2a3d
000003a0: 6bd6 2c3d a406 e83c ed30 383d ba37 5e3c
000003b0: 2b6c 323d 9f13 e93c 4432 203d 91c5 973b
000003c0: efad 0fbc 8bbc a8bc 4a7a dabb 2ed2 cc3c
000003d0: 0cb9 de3c 762f 0c3c e4fc bebc 885f 4fbc
000003e0: 49c8 f43a fc32 9abc f3ba 09bc 1575 9fbc
000003f0: e730 893c a8b0 2fbc e834 d7bc 5f3f 8bbc
0.0042343414 0.010002529 0.019443002 -0.0057977224 -0.017436082 0.04342836 0.017336944 0.0047427695
0.031683154 0.030008271 -0.015802994 0.039451413 -0.0076331156 0.026871607 0.011706263 0.0051711835
-0.043187875 0.024951955 -0.023014452 -0.01915861 -0.008684733 -0.001543977 -0.020255782 -0.0139842555
-0.004572019 0.033413623 0.008480955 0.0062235384 -0.0127479555 0.0043362076 -0.015570808 0.023442121
0.013436903 -0.03418569 0.023978826 -0.015002125 0.018711196 0.008756481 -0.003964369 0.012348243
-0.0061780587 -0.02368734 0.04267677 -0.011203041 -0.006340935 -0.0020991492 0.010860529 -0.025850412
0.018992804 0.0033017567 0.024258884 -0.015111202 0.017175553 0.036855392 -0.010029121 0.028056873
0.0006518848 0.011372306 0.008334714 -0.026936995 -0.015267573 0.034104254 -0.014836786 0.041395277
0.008976623 -0.01879472 -0.016949978 -0.029275749 -0.0010129617 0.021238703 -0.033942956 -0.016808843
-0.0041595767 0.001531744 0.028914055 0.0009861664 -0.028966123 -0.017482448 -0.025504222 -0.016358173
0.01187112 0.0010789111 -0.019259691 -0.03305827 -0.02234943 0.012957135 -0.022197321 -0.0030350757
0.02128835 0.0042612837 -0.022917496 -0.006102601 0.008582123 -0.009890653 -0.0212617 -0.036333837
-0.03532145 -0.024515297 -0.030657612 -0.03163529 -0.03695725 -0.01713959 -0.02672176 -0.03083687
0.015111407 -0.011878478 -0.026286812 0.0130543 -0.013106755 -0.04119211 -0.021304525 0.0007221351
-0.0075979275 -0.0011844258 0.011704169 -0.027753985 -0.034725066 0.0030585148 -0.015531378 -0.0079794545
-0.00015535236 -0.0042843567 0.0026986832 0.014166612 -0.04412722 -0.008452648 -0.010111182 -0.018543554
-0.007051352 -0.034236107 0.021719823 0.01854483 -0.0064009526 -0.031283405 -0.00339773 0.025507195
0.015657557 -0.0006353203 0.019245978 -0.031806815 -0.034353264 0.010189454 0.011453211 -0.013533833
0.0004919188 0.019099176 0.015270691 -0.030974634 -0.034600716 -0.021739576 0.0017160213 0.023627749
0.0018660682 -0.016348416 -0.030921787 -0.003378823 0.011150531 0.00641273 -0.018376695 -0.02687247
0.0020357822 0.048576053 0.038778726 0.030237237 0.073681496 -0.025973933 0.062188815 -0.032249708
0.03488164 0.01515082 0.05244382 0.01524415 0.030330092 0.0026359323 0.033799477 -0.024542417
-0.010070932 0.0038739294 -0.027970327 -0.03133939 -0.019220322 0.0065618814 -0.013874643 -0.018981295
-0.015316829 0.014133237 -0.005947697 0.0139286835 0.016292363 -0.032294873 -0.007997813 -0.028007999
-0.035305858 -0.010932344 -0.001732592 0.026663274 0.0045896606 -0.004586976 0.01865819 0.010461666
-0.007247675 0.009111826 0.007313734 0.0039198906 -0.0005167014 -0.026707511 -0.033277497 -0.00410651
-0.0055696103 -0.024192523 -0.018042993 -0.009400127 0.01500777 -0.021381574 -0.015532903 0.007289208
-0.01718129 -0.029378623 0.0002514309 -0.021395452 -0.0277497 0.013069224 0.00962378 -0.0006866506
0.0019092812 -0.0008423363 0.01963246 0.008455131 0.022089321 0.024198076 0.014461999 0.041701272
0.042196672 0.028323479 0.044968534 0.013563091 0.04356019 0.028451739 0.039110437 0.004631706
-0.008769496 -0.020597717 -0.00666741 0.025002565 0.027187847 0.008556237 -0.023313947 -0.012657054
0.0018675412 -0.01882314 -0.008406389 -0.019465009 0.016746951 -0.0107232705 -0.026270345 -0.016997991

main.2.bias f4 [128]
00000000: 382d 38bb 80cc 15bb 984b 4cbd 5c54 1a3d
00000010: 3101 21bd 15e0 0fbc d57b fc39 6b81 0cbd
00000020: dc9d 6bbd eb86 e4ba 80b2 d3bc 3d02 20bd
00000030: 9eff d0bc b97c 91ba 0fee 11bd 841b 44bd
00000040: efeb f53a 66d1 39bd b70e 78bd eddc 19bd
00000050: 349b a7bc 89b9 30bd 3e75 0ebd f0b1 4bbc
00000060: a8e7 053d 8fb1 6fbd 6b23 0abd cdc2 b23c
00000070: 820c fcbc 8a09 45bd 3bea 92bd fae5 34bc
00000080: de58 2bbd 3026 30bb 4fc5 7ebc a0ca 4abd
00000090: a137 98bc 0318 73bd 4c17 1fbd f867 fbbc
000000a0: af2f 353c b2b8 78bd 253f 55bc 7e43 933c
000000b0: 430b a2bd 5dbb 94bd 9a02 00bd ad74 d2bb
000000c0: 1ea7 c7bc 1e26 0b3d 6298 28bd 2e13 53bc
000000d0: 60fc 80bc 2396 8bbd ab38 efbb ee76 20bd
000000e0: ed34 88bc 1250 29bd ab4a 863a d39d 68bd
000000f0: 83f0 4a3c 3f3c 28bc 03cd 22bd c903 c4bb
00000100: 6fd1 fe3a 070a 04bd 359a 7cbc 2256 9aba
00000110: 0d1d acbd 5798 86bc 3c98 0fbd 343c 36bd
00000120: 788f efbc 41fb 69bc 5c46 013c 3640 81bc
00000130: 057d 51bd 459b b9bc beab 88bc db5e eb3a
00000140: 2f72 e8bc 2206 0ebd 6fa5 773c d5d2 14bd
00000150: e939 cabb 9a20 96bc 5cdd 733c 981e 28bc
00000160: fa5a 7dbc a128 82bd e2ce 9d3b 9a77 ebbc
00000170: b9b3 ccba 42cc 343b 3e29 e4bc 4d78 03bd
00000180: ed2a cbbb 9ba0 34bd cbe3 4dbd eac3 babb
00000190: 6048 b2bc 4d78 20bd ff1e ed3c 42da 10bc
000001a0: 9237 ba3c 58ad 1fbd 179e 23bb 21bb 27bd
000001b0: 4abc 90bc 4220 e3bc 4f80 26bd 72c0 44bd
000001c0: c791 31bd 0663 67bd 24e7 1abd a517 f8bc
000001d0: c6f5 fb3c 622b 09bd a325 97bd 48fe 08bd
000001e0: 73f6 b3bc b152 f5bc bbc6 a8bc 6c92 943c
000001f0: 38e7 193d 2795 8438 9f54 07bd d43f a5bc
-0.0028103124 -0.0022857487 -0.04987678 0.037678108 -0.039307777 -0.008781453 0.00048157448 -0.03430311
-0.057523593 -0.0017435228 -0.025841951 -0.039064635 -0.025512513 -0.0011099792 -0.03562742 -0.047877803
0.001876233 -0.045365714 -0.06056091 -0.037564207 -0.020459749 -0.04314569 -0.03477978 -0.01243256
0.032691628 -0.058518942 -0.033725183 0.021821404 -0.030767683 -0.0481048 -0.07173582 -0.011041159
-0.041832797 -0.002687823 -0.015549972 -0.049509645 -0.018581213 -0.05934907 -0.038840577 -0.030689225
0.011058732 -0.060723014 -0.013015543 0.017976519 -0.07912304 -0.07262299 -0.03125248 -0.0064226002
-0.02437168 0.0339719 -0.04116095 -0.012882991 -0.015745342 -0.06815746 -0.0073004565 -0.03917592
-0.0166268 -0.041336127 0.0010245641 -0.056791138 0.012386444 -0.01026827 -0.039746296 -0.0059818965
0.0019441078 -0.032236125 -0.015417625 -0.0011774937 -0.084039785 -0.016430063 -0.03505729 -0.044491008
-0.029243216 -0.014281095 0.00789031 -0.015777688 -0.05114462 -0.022657046 -0.016683456 0.0017957346
-0.02837476 -0.034673817 0.015115126 -0.036333878 -0.006171454 -0.018326093 0.014884319 -0.0102612
-0.015463585 -0.063554056 0.004815922 -0.028743554 -0.0015617526 0.0027587567 -0.027851697 -0.03209715
-0.0062001855 -0.044098478 -0.05026607 -0.0056996243 -0.021763027 -0.039177228 0.028945444 -0.008841099
0.022731576 -0.038983673 -0.0024966055 -0.040949944 -0.017667908 -0.027725343 -0.04064971 -0.048035093
-0.043351915 -0.05649092 -0.03781809 -0.030284712 0.030756842 -0.03348864 -0.073802255 -0.033445626
-0.021968102 -0.029946657 -0.020602575 0.018136226 0.037574023 6.322032e-05 -0.033039685 -0.020172037

main.4.weight f4 [1, 128, 4, 4]
00000000: 8973 fa3b b991 59bb fd3e 803b 881f 0bbb
00000010: de04 a0bb 71f6 73bc 021c d03b 1feb 52bb
00000020: cb0e e9bb a2f1 4a3b 37cc f5bb 82ff 90bb
00000030: 4029 6ebc e6de 383c 5a8f 803b 987a b2bc
00000040: 9586 f33b a064 6cbc a9b2 f6bc 224e 09bc
00000050: 0dcc bfbb 2000 22bc 914d 3cbc 407d 80bc
00000060: 0b7d 4c3c 63fe 643c 4d62 28bc 1e24 0ebb
00000070: 9d1e 6c3c 31cd d0bb bb57 2f3b 78ea 7f3c
00000080: 8e5f 863d 367d 673d 0ef0 3f3d 3471 273d
00000090: c8eb 803d a00c 573d cddc 153d cc35 153d
000000a0: 4275 753d 1f90 363d 449d 0d3d 2f3e 2f3d
000000b0: b4ff 243d 0b73 783d 8e9c 4e3d 3566 393d
000000c0: 42d4 a33b 7428 d13b 730e e4bb f713 caba
000000d0: 9157 3abc df31 f13b 0faa 42bc f682 34bc
000000e0: 3abc 233d 5b49 323d 3cad 19bb d2b9 013d
000000f0: 7550 ac3c 123a c43c 2735 ad3c b99b c0bb
00000100: 074b 533c 4b94 3dbb cead a6bc 5bff 3e3c
00000110: f288 683c cc6b c2ba cbd5 953c 5ef5 2ebc
00000120: ee41 123c d789 033b 262d 35bc 1607 60bc
00000130: e90e be3c 4b40 473c 5f24 c23c 1395 96bc
00000140: 6ecf a63c 9042 d63c ea95 a9bb 79ff c33b
00000150: 9ba6 bdb9 9703 cbbc d652 3abc edf6 e0bc
00000160: be12 453c a503 cfbb c6a9 28bc c2ff 073c
00000170: a3f1 a5bc b9b2 a7bc 32d0 9d3b 59ec 5f3b
00000180: ae64 373d 02c5 2b3d b8c3 5f3d 7f3b 2d3d
00000190: 03b4 5a3d a634 743d c7cf 323d 2218 023d
000001a0: 8419 6f3d d737 ac3c b931 e73c 8449 743d
000001b0: 4853 863d db91 0a3d cd43 6f3d 0d28 a73c
000001c0: f2ad 09bd 4f85 01bd 1562 a83b 59f9 3bbc
000001d0: 37df 39bb 80da 6fbc 454c 5a3b 8a64 54bc
000001e0: aeea 14bc 4892 76bb 830d d53b bd46 923c
000001f0: 4e8a 933b 7334 37bc 4d1a 343c d9a7 f0ba
00000200: 9454 ab3b 03f4 06bc 010a 51bc 3e82 05bd
00000210: 907d 9dbb e229 823a 3f6b 183a c451 3eba
00000220: 7eae 313c 5b17 a43c 8156 67bc b786 e2ba
00000230: fab9 97bc 1c6a 66bc fdfc 653c 07c6 dabb
00000240: 1572 f7bb c2ce a4bc d067 c8b8 dfaa 553c
00000250: 4244 91bc 078b 323c 4f22 2ebc fa97 923b
00000260: 0ee1 0d3c 802f 503c 5aa1 c4bb 34b8 94bc
00000270: 5fc2 d7bc b940 c73b 2f33 c0bc 6ce5 e93b
00000280: ca08 243b c849 af3a 949f 843c f3fe 333b
00000290: 1db7 803c 9564 703c d8f1 1f3c 2e66 973c
000002a0: 7235 4f3c 87ff 7bbb 93a1 663c af11 d73b
000002b0: 63b7 5fbb aaa9 3f3c 2122 a03c 00db f9bb
000002c0: 8f9a 0d3d 3106 b33b c7f4 b83c 6d0e ae3c
000002d0: c31a 853b 10a1 e73b 45f0 363a e4e5 0b3c
000002e0: 13d9 e1ba 4bdc 7b3c 1117 d63c 7d30 b83c
000002f0: 8fd5 ba3c a0c0 c43c ad24 4e3c 4915 9a3c
00000300: dd6d 293d c431 0a3d 3a33 a03c 8843 223d
00000310: 2a47 103d 890b 2f3d 2091 3f3b 6a06 0b3d
00000320: 62c7 203b f70d 54bc 4df1 26bc 6172 6bbc
00000330: a9de e5bb 0c4a f4bb 77d6 20bc 9431 b63a
00000340: d855 19bd 18ef e0bc c748 38bd 692c 50bd
00000350: 28f5 dfbc f1df 8fbc 9e75 3bbd ad57 5ebd
00000360: 30c2 32bc 88d3 83bb e73e 76bc a573 95bb
00000370: 872c 8abc a20c a3bc 8422 0bbd acc5 c0bc
00000380: 4971 a63c 56e1 493d ac0a 8c3c 5469 593d
00000390: 60b5 683c d095 8d3c 8a25 963c 07b8 983c
000003a0: bd40 1b3d d6b9 213d 2f0c 173d a276 213d
000003b0: f5a3 bf3c b1fa 133d 2168 da3c b9ad 0d3d
000003c0: 0f61 53bd a99f 63bd 1cf4 4dbd 0b8d 03bd
000003d0: 8e25 1abd 1602 27bd a252 54bd d320 23bd
000003e0: 5964 4abd 4fe6 30bc d42d 30bb 2bf5 54bc
000003f0: 130d 05bd f075 6bbc a7cc c6bc 89ee 00bd
0.0076431674 -0.003319843 0.003913759 -0.002122851 -0.0048833927 -0.014890299 0.006350995 -0.00321836
-0.007112359 0.0030966778 -0.007501151 -0.00442499 -0.014536202 0.011283612 0.003923339 -0.021786973
0.007431815 -0.014428288 -0.030114489 -0.008380445 -0.005853182 -0.009887725 -0.011493103 -0.015684724
0.012480984 0.013976666 -0.010277343 -0.0021689008 0.014411596 -0.006372117 0.0026755172 0.015619867
0.06561194 0.056515895 0.046859793 0.040879443 0.06294972 0.052502275 0.036587525 0.036428258
0.05992628 0.04457104 0.03457381 0.042783912 0.04028292 0.06065659 0.05044227 0.045263488
0.0049996683 0.006382996 -0.0069597303 -0.0015417327 -0.0113734165 0.0073606814 -0.011881365 -0.011017552
0.03997443 0.04352699 -0.0023449203 0.031671353 0.021034459 0.023953471 0.02114351 -0.0058779386
0.012896306 -0.00289275 -0.020346548 0.011657561 0.014192807 -0.0014833151 0.018290421 -0.010678617
0.008926852 0.0020071173 -0.0110581275 -0.013673564 0.02320047 0.012161325 0.023698984 -0.018381631
0.020362582 0.026154786 -0.005175342 0.0059813824 -0.0003617302 -0.024781985 -0.011372289 -0.027461493
0.012028394 -0.006317573 -0.010294383 0.0083007235 -0.020256823 -0.020470964 0.0048160786 0.0034167974
0.04477375 0.04193593 0.05463001 0.042293068 0.05339433 0.059620522 0.043655183 0.031761296
0.058373943 0.02102272 0.028221952 0.059640422 0.065588534 0.033830505 0.05841427 0.02040484
-0.033613153 -0.031621274 0.0051386454 -0.011473023 -0.0028361806 -0.014639497 0.003330962 -0.0129634235
-0.009089155 -0.0037623812 0.006501855 0.017855996 0.004502571 -0.011181938 0.010992599 -0.0018360569
0.0052285884 -0.008236888 -0.012758733 -0.03259491 -0.004806228 0.0009930695 0.0005814321 -0.0007260109
0.010844825 0.020030668 -0.014119745 -0.001728258 -0.018521298 -0.014063384 0.014037368 -0.0066764387
-0.0075514414 -0.020118121 -9.55608e-05 0.013041227 -0.017732743 0.0108974045 -0.010628297 0.0044736834
0.008659614 0.012706637 -0.00600068 -0.018154241 -0.0263378 0.0060807136 -0.023461906 0.007137945
0.0025029653 0.0013373429 0.016189374 0.0027465194 0.015712315 0.014672418 0.00976225 0.01848134
0.01264702 -0.0038451867 0.014076608 0.0065633873 -0.0034136407 0.011698166 0.019547524 -0.007624984
0.034571227 0.0054633846 0.022577656 0.021247113 0.004062028 0.0070687607 0.0006978552 0.008538697
-0.0017230831 0.015372346 0.026134046 0.022484059 0.02280691 0.024017632 0.012581986 0.018808978
0.04136454 0.033738866 0.019555677 0.039615184 0.035224117 0.04273561 0.0029230788 0.033941664
0.0024532904 -0.012942783 -0.0101893665 -0.014370532 -0.0070150685 -0.007455116 -0.009816757 0.0013900273
-0.037435383 -0.027457759 -0.04499128 -0.050823603 -0.02733858 -0.017562838 -0.045766465 -0.054282833
-0.010910556 -0.004023019 -0.0150296455 -0.004560905 -0.016866935 -0.019903485 -0.033968464 -0.023531757
0.02031769 0.049287163 0.017094932 0.053078964 0.014203399 0.01728335 0.018328447 0.018642439
0.037903536 0.039483868 0.036876854 0.039419778 0.02339361 0.03612775 0.02666098 0.034589503
-0.051606234 -0.055572186 -0.05028163 -0.03211693 -0.03763347 -0.040773474 -0.051836617 -0.039826225
-0.049412105 -0.010797097 -0.0026882784 -0.012997906 -0.03248317 -0.01437138 -0.024267508 -0.031477485
